module {
  func.func @forward(%arg0: tensor<1x3x224x224xf32>) -> tensor<1x64x222x222xf32> {
    %cst = stablehlo.constant dense<[… > : tensor<64xf32>
    %cst_0 = stablehlo.constant dense<"…"> : tensor<64x3x3x3xf32>
    %cst_1 = stablehlo.constant dense<[… > : tensor<64xf32>
    %cst_2 = stablehlo.constant dense<"…"> : tensor<64x3x3x3xf32>
    %0 = stablehlo.convolution(%arg0, %cst_2) dim_numbers = [b, f, 0, 1]x[o, i, 0, 1]->[b, f, 0, 1], window = {stride = [1, 1], pad = [[0, 0], [0, 0]], rhs_dilate = [1, 1]} {batch_group_count = 1 : i64, feature_group_count = 1 : i64} : (tensor<1x3x224x224xf32>, tensor<64x3x3x3xf32>) -> tensor<1x64x222x222xf32>
    %1 = stablehlo.reshape %cst_1 : (tensor<64xf32>) -> tensor<64x1x1xf32>
    %2 = stablehlo.broadcast_in_dim %0, dims = [0, 1, 2, 3] : (tensor<1x64x222x222xf32>) -> tensor<1x64x222x222xf32>
    %3 = stablehlo.broadcast_in_dim %1, dims = [1, 2, 3] : (tensor<64x1x1xf32>) -> tensor<1x64x222x222xf32>
    %4 = stablehlo.add %2, %3 : tensor<1x64x222x222xf32>
    %5 = stablehlo.convolution(%arg0, %cst_0) dim_numbers = [b, f, 0, 1]x[o, i, 0, 1]->[b, f, 0, 1], window = {stride = [1, 1], pad = [[0, 0], [0, 0]], rhs_dilate = [1, 1]} {batch_group_count = 1 : i64, feature_group_count = 1 : i64} : (tensor<1x3x224x224xf32>, tensor<64x3x3x3xf32>) -> tensor<1x64x222x222xf32>
    %6 = stablehlo.reshape %cst : (tensor<64xf32>) -> tensor<64x1x1xf32>
    %7 = stablehlo.broadcast_in_dim %5, dims = [0, 1, 2, 3] : (tensor<1x64x222x222xf32>) -> tensor<1x64x222x222xf32>
    %8 = stablehlo.broadcast_in_dim %6, dims = [1, 2, 3] : (tensor<64x1x1xf32>) -> tensor<1x64x222x222xf32>
    %9 = stablehlo.add %7, %8 : tensor<1x64x222x222xf32>
    %10 = stablehlo.add %4, %9 : tensor<1x64x222x222xf32>
    return %10 : tensor<1x64x222x222xf32>
  }
}

